sample_checkpoint_model_epoch10.pth (torch_old, 118845 bytes, 14 tensors)

layer1.0.weight f4 [16, 1, 5, 5]
0	0x3d6260db	0.05526815
1	0xbe19295d	-0.14957185
2	0xbe2c6c2a	-0.16838136
3	0xbd8d417c	-0.06897256
4	0xbe14bfc8	-0.14526284
5	0x3e2a6bea	0.16642728
6	0xbb5af03e	-0.0033407356
7	0x3d1fd609	0.03902248
8	0xbd1bd704	-0.03804685
9	0xbb8e18e7	-0.0043364647
10	0x3e0be2a7	0.1366068
11	0x3e49f1f8	0.1972121
12	0x3e803491	0.25040105
13	0x3de76889	0.112992354
14	0x3da67022	0.081268564
15	0xbda7c9c0	-0.08192778
16	0x3d0add17	0.033902254
17	0x3d50a870	0.050941885
18	0x3e127712	0.14303234
19	0x3df95904	0.121751815
20	0xbe1f2535	-0.15541537
21	0xbdf7471b	-0.12074109
22	0xbdc7b473	-0.09751215
23	0xbe42a0b2	-0.19006613
24	0x3c7984b5	0.015229394
25	0x3d0b3024	0.033981457
26	0x3e12e915	0.14346726
27	0x3e017bbd	0.12644859
28	0xbe85cd93	-0.26133403
29	0x3b2c8f4f	0.0026330536
30	0x3d363905	0.04448797
31	0x3e4198a8	0.1890589
32	0x3da71ed9	0.081601806
33	0xbe9966fa	-0.29961377
34	0xbe9ee1cc	-0.31031644
35	0xbd399d8b	-0.04531626
36	0x3e88f43e	0.26748842
37	0xbd9f6bc5	-0.07784227
38	0xbd7a6160	-0.06112802
39	0xbe8c4e1b	-0.2740334
40	0x3e16bb83	0.14719968
41	0xbd31ab61	-0.04337633
42	0x3dc115df	0.09428
43	0xbda2edf3	-0.079555415
44	0xbe6cfe09	-0.23143782
45	0x3d359846	0.044334672
46	0xbdca929f	-0.09891247
47	0x3c97c7e3	0.01852793
48	0xbe1f78ce	-0.15573427
49	0xbdb76d3e	-0.08956383
50	0xbe45c65b	-0.19313948
51	0xbdeea54c	-0.116526216
52	0xbda1b62b	-0.07896074
53	0xbde3f4ba	-0.11130662
54	0x3e66d7fb	0.22543328
55	0x3de6b863	0.11265638
56	0xbd639e4d	-0.05557089
57	0xbe30f581	-0.17281152
58	0x3eae3c5c	0.34030426
59	0x3d3d8338	0.046267718
60	0xbe0ad451	-0.13557555
61	0x3b6ef2e0	0.0036460683
62	0x3e5d706e	0.2162492
63	0x3e78d6ea	0.24300733
64	0xbe495b64	-0.19663769
65	0x3d66db4b	0.056361478
66	0x3d830677	0.063977174
67	0x3e0dd259	0.13849773
68	0xbe312cb9	-0.17302217
69	0xbe6de000	-0.2322998
70	0x3e24da16	0.16098818
71	0xbce57d1f	-0.028013764
72	0xbb793156	-0.0038023791
73	0xbde95aad	-0.11394248
74	0xbd8d876b	-0.069105946
75	0x3e3a7803	0.18209843
76	0x3dfd55f0	0.12369907
77	0xbcd44ea2	-0.025916401
78	0xbe4eec31	-0.20207287
79	0xbab57461	-0.0013843888
80	0xbd52c37f	-0.05145597
81	0xbe87a968	-0.26496434
82	0xbe84ec11	-0.25961354
83	0x3d82c22b	0.06384691
84	0x3e0e6885	0.13907059
85	0xbd23171f	-0.039816972
86	0xbea157c4	-0.31512272
87	0x3dcfbaf1	0.10143078
88	0x3dfccfcd	0.12344322
89	0x3dd9ca41	0.1063428
90	0xbdba8721	-0.09107805
91	0xbe36a94b	-0.17838018
92	0x3e030e8a	0.12798515
93	0x3e1c6cc1	0.15275861
94	0xbdf4393a	-0.119249776
95	0xbe96aea3	-0.29430112
96	0xbcaffb44	-0.021482117
97	0x3d3564fd	0.044285763
98	0xbd12b66b	-0.0358185
99	0xbd1ab2d2	-0.037768193
100	0x3e4ea85e	0.20181414
101	0xbd4ae886	-0.049538158
102	0x3cf73856	0.03017823
103	0x3c1f3abf	0.009718596
104	0xbd360dc3	-0.044446718
105	0xbe092b20	-0.13395357
106	0x3e224145	0.15845211
107	0xbd70fada	-0.05883298
108	0xbccfbd5b	-0.025358846
109	0xba1caa14	-0.00059762713
110	0xbcb48bbd	-0.022039289
111	0x3db7afbc	0.089690655
112	0x3e287acc	0.16453093
113	0xbe94bd06	-0.29050463
114	0xbdd6f381	-0.104956634
115	0xbd93b1ed	-0.07211671
116	0x3e105c2f	0.14097665
117	0x3eb7840b	0.35842928
118	0xbe48fc8e	-0.19627592
119	0xbdf852ac	-0.121251434
120	0xbec0c45f	-0.3764982
121	0xbcfdfac0	-0.031003356
122	0x3ea09689	0.3136485
123	0xbd3876ab	-0.045035046
124	0x3deda726	0.11604147
125	0xbd8addcd	-0.067805864
126	0xbe808ccb	-0.25107417
127	0xbdc3ae12	-0.09554686
128	0x3d4a62f4	0.049410775
129	0x3e0d5ac4	0.13804156
130	0xbddc93e2	-0.10770394
131	0x3daaf646	0.08347754
132	0x3ea01292	0.31264168
133	0x3e2240c7	0.15845023
134	0x3d72c877	0.05927321
135	0x3e33418e	0.17505476
136	0x3e03f689	0.12887014
137	0x3c8e9043	0.017402774
138	0xbe890c66	-0.26767272
139	0xbe844a5e	-0.25837988
140	0xbde01e57	-0.10943287
141	0xbdee688e	-0.11641036
142	0xbe86adf3	-0.26304588
143	0xbdab6514	-0.083688885
144	0x3d4f5e36	0.050626956
145	0xbd025197	-0.03181609
146	0x3d23b5a9	0.039968167
147	0x3d9b36f6	0.07578842
148	0x3deb9e72	0.115048304
149	0x3de6b4df	0.11264967
150	0xbdd475d9	-0.1037404
151	0x3e1e9aab	0.15488689
152	0xbd668572	-0.056279607
153	0xbdfb53b6	-0.12271826
154	0xbdca008b	-0.09863385
155	0xbe954a4a	-0.2915824
156	0xbed12eb3	-0.4085594
157	0xbe9b452a	-0.30326205
158	0xbe40bda8	-0.18822348
159	0xbe229d82	-0.15880397
160	0xbe150a1b	-0.14554636
161	0x3d92c9e9	0.071674176
162	0x3d656b50	0.056010544
163	0x3d62a334	0.055331424
164	0xbd9e00d7	-0.07715004
165	0x3d636f50	0.055526078
166	0xbc821a78	-0.015881762
167	0x3cbbfb34	0.022946931
168	0xbcd26420	-0.025682509
169	0xbc51cc25	-0.0128050195
170	0xbdd1996d	-0.10234342
171	0x3d488425	0.048954148
172	0x3d930591	0.07178796
173	0x3e018ee3	0.12652163
174	0x3e845225	0.2584392
175	0x3e5c6fb0	0.2152698
176	0x3e2751fa	0.16339865
177	0xbd505644	-0.05086352
178	0xbde0f6f7	-0.10984605
179	0x3d9205c9	0.0713001
180	0x3c325549	0.010884591
181	0x3db144fd	0.086557366
182	0xbe8485f1	-0.2588344
183	0xbe00f11d	-0.12591977
184	0xbe2ee797	-0.17080532
185	0x3e3989e3	0.18119006
186	0xbe786ae2	-0.24259523
187	0xbea94df6	-0.33067292
188	0xbd35c1d6	-0.04437431
189	0xbc82c77e	-0.015964266
190	0xbce89a1c	-0.028393798
191	0xbe5df78b	-0.21676461
192	0xbe0ccaf5	-0.13749297
193	0x3dd1b7bb	0.10240122
194	0x3e8f3317	0.27968666
195	0xbdbc987f	-0.09208774
196	0x3dcf0513	0.1010839
197	0x3dbc826a	0.09204562
198	0x3e1fa8a5	0.15591677
199	0xbe043109	-0.1290933
200	0x3d8eac94	0.069665104
201	0xbe0ead2f	-0.13933252
202	0x3e39d166	0.18146285
203	0xbd8a7491	-0.067605145
204	0xbd16f327	-0.036852982
205	0xbe07c0bc	-0.13257116
206	0xbdbae451	-0.09125579
207	0xbd80a8a8	-0.062821686
208	0x3df3a33e	0.1189637
209	0x3b3cc0be	0.0028801407
210	0xbb7f89bf	-0.0038992015
211	0xbc91143c	-0.017709844
212	0xbe81efd2	-0.2537828
213	0x3e1b6666	0.1517578
214	0x3e52c37f	0.20582388
215	0x3e820fdf	0.25402734
216	0x3dd050aa	0.101716354
217	0xbe9eccbf	-0.31015584
218	0xbe21cb9f	-0.15800332
219	0x3e145f65	0.14489515
220	0xbe25b5f2	-0.16182688
221	0x3e9240cb	0.28565058
222	0xbdd8b5e9	-0.105815716
223	0xbe05b700	-0.1305809
224	0xbba42537	-0.005009319
225	0xbe75f0d8	-0.24017656
226	0xbd403fc4	-0.04693581
227	0x3e03f067	0.12884675
228	0x3de8d9da	0.11369677
229	0x3e86e013	0.2634283
230	0xbdbc0964	-0.091814786
231	0xbd97d5c5	-0.0741382
232	0x3e2e591b	0.17026179
233	0xbd7467ab	-0.059669178
234	0x3d6b4d97	0.057447042
235	0xbcacc081	-0.021087887
236	0xbe0bf969	-0.13669361
237	0x3db5dba5	0.088797845
238	0x3e3e5c7d	0.18589969
239	0xbc468073	-0.012115586
240	0xbe830def	-0.25596568
241	0xbe184e65	-0.14873655
242	0xbdf123f9	-0.11774439
243	0xbe2acd96	-0.16679987
244	0xbe6c108a	-0.23053184
245	0x3ca83992	0.020535264
246	0xbe86e162	-0.26343828
247	0xbeacf60f	-0.33781478
248	0xbe5c477f	-0.21511649
249	0x3d7f95be	0.062398665
250	0x3ed7dfe2	0.42162997
251	0x3d4e0b09	0.050303493
252	0x3b7ed555	0.003888448
253	0x3ded978e	0.116011724
254	0x3d0a4b88	0.03376344
255	0xbbbbc48d	-0.005730218

layer1.0.bias f4 [16]
0	0xbe128092	-0.14306858
1	0x3dce6776	0.10078327
2	0xbc876304	-0.016526707
3	0xbe2f87ab	-0.17141597
4	0xbd74d20b	-0.059770625
5	0xbebcc4c8	-0.36868882
6	0xbe4ab561	-0.19795753
7	0xbd5b3b94	-0.053523615
8	0x3de28a5b	0.110615455
9	0xbdc5910e	-0.096468076
10	0xbda7d381	-0.08194638
11	0xbd3470d3	-0.04405291
12	0x3e62a2ed	0.22132464
13	0xbe952a50	-0.29133844
14	0x3de4d75a	0.111738876
15	0x3e18ede4	0.14934498

layer1.1.weight f4 [16]
0	0x3e898b39	0.2686403
1	0x3f47def0	0.7807455
2	0x3e96ccb9	0.29453066
3	0x3efdabb9	0.49545076
4	0x3e7c147d	0.2461719
5	0x3f2a8b07	0.6661839
6	0x3f1e8a66	0.6192993
7	0x3f5c4ee2	0.86057866
8	0x3f0a6eff	0.54075617
9	0x3f5e055f	0.86726946
10	0x3e6f2ca5	0.23356874
11	0x3e951791	0.29119542
12	0x3f01f9cf	0.507718
13	0x3f2383c3	0.6387293
14	0x3efbc09b	0.49170384
15	0x3e95a4fe	0.29227442

layer1.1.bias f4 [16]
0	0xbe3b1fe6	-0.18273887
1	0xbeb14cf8	-0.34629035
2	0xbe9f6b18	-0.31136394
3	0xbe49071f	-0.19631623
4	0xbe547d87	-0.2075101
5	0xbec5ae0a	-0.38609344
6	0xbe74a35a	-0.23890439
7	0xbe51db58	-0.20493829
8	0xbe356440	-0.17714024
9	0xbea8fa1e	-0.33003324
10	0xbeb2bb0b	-0.34908327
11	0xbe219d8c	-0.15782756
12	0xbe473ce0	-0.19456816
13	0xbe848d24	-0.25888932
14	0xbde0a05b	-0.109680854
15	0xbe530646	-0.20607862

layer1.1.running_mean f4 [16]
0	0xbea7cfcd	-0.32775727
1	0x3f25520d	0.64578325
2	0xbcc0ff75	-0.023559311
3	0x3eb809cd	0.35944977
4	0xbdf3650b	-0.11884507
5	0xbe951237	-0.2911546
6	0x3f17f03e	0.59350955
7	0x3eaabe44	0.33348286
8	0x3e88a8c0	0.26691246
9	0x3f434930	0.7628355
10	0xbf95261c	-1.1652255
11	0x3ed9b477	0.42520496
12	0x3ee1c3fd	0.4409484
13	0x3f01f88f	0.50769895
14	0x3e5c685d	0.21524186
15	0x3e01b8fc	0.12668222

layer1.1.running_var f4 [16]
0	0x3e277911	0.16354777
1	0x3f326b8c	0.69695354
2	0x3e2d0c52	0.16899231
3	0x3eb6ee0e	0.35728496
4	0x3e046ef3	0.12932949
5	0x3dcd832d	0.100347854
6	0x3f22e7e2	0.63635075
7	0x3eaeb4a7	0.34122202
8	0x3da7fed6	0.08202903
9	0x3f371dad	0.71529657
10	0x3efebddc	0.49754226
11	0x3ea2f95c	0.3183087
12	0x3f198ff1	0.5998526
13	0x3ed9779e	0.42474073
14	0x3e76ef85	0.24114807
15	0x3e11adfe	0.14226529

layer2.0.weight f4 [32, 16, 5, 5]
0	0xbdc214b6	-0.094766065
1	0xbd898a5c	-0.06715843
2	0xbd2052b7	-0.039141383
3	0xbe3e61ad	-0.18591948
4	0xbd816ee3	-0.06319978
5	0xbd0bf328	-0.03416744
6	0x3da84ba6	0.08217554
7	0x3dce78ae	0.100816116
8	0xbd84e73a	-0.064894155
9	0x3c5764db	0.013146604
10	0xbdc59f5b	-0.09649535
11	0x3d3a2f21	0.045455102
12	0x3d83128d	0.06400023
13	0xbbebf5dc	-0.0072009396
14	0xbdcfa6f9	-0.101392694
15	0xbc9b4ad1	-0.018956574
16	0xbd649dcd	-0.055814553
17	0xbbb050c1	-0.0053807204
18	0x3b69c870	0.0035672449
19	0xbd3da59d	-0.04630052
20	0x3db07be0	0.08617377
21	0x3dc09433	0.09403267
22	0x3d4054c9	0.046955857
23	0xbd038550	-0.03210956
24	0x3bd85b05	0.0066026472
25	0xbd27aea4	-0.040938035
26	0x3db34f66	0.087553784
27	0x3d8bbdc1	0.06823302
28	0x3dfa9f49	0.122374125
29	0xbc9a4e9b	-0.01883631
30	0x3d8ab55f	0.06772875
31	0x3d4e9ae4	0.050440684
32	0x3d35509e	0.044266336
33	0x3ce846b0	0.028354019
34	0xbd01c378	-0.031680554
35	0x3de432c4	0.11142495
36	0x3d9bb600	0.07603073
37	0x3d045403	0.032306682
38	0x3cc2b022	0.023765627
39	0x3c1787c8	0.009248681
40	0x3e235fca	0.1595451
41	0x3dbac2cb	0.09119185
42	0x3db327d8	0.08747834
43	0x3e2097da	0.15682927
44	0x3ccb0b0b	0.02478554
45	0xbc5ccb5a	-0.013476217
46	0xbd1d893d	-0.03846096
47	0xbc80a922	-0.015705649
48	0x3d680834	0.056648448
49	0x3c9dec92	0.019277845
50	0x3ce77252	0.028252754
51	0xbdab0f34	-0.08352509
52	0x3d15a92a	0.03653828
53	0x3c23e31f	0.01000288
54	0x3c56ead1	0.013117508
55	0x3debbaef	0.11510264
56	0x3d6de4b6	0.058079444
57	0xbb2ce06c	-0.0026378883
58	0x3e0d0c98	0.13774335
59	0x3dca60c4	0.09881738
60	0x3e15c7d6	0.14627013
61	0x3cfe11e4	0.03101439
62	0xbd3e9572	-0.04652924
63	0x3dfcd4d6	0.12345283
64	0x3e28c101	0.16479875
65	0x3bb02a55	0.00537614
66	0x3a846f43	0.0010103959
67	0x3e18b4eb	0.14912765
68	0x3d3b099c	0.04566346
69	0x3cd0d257	0.025490923
70	0xbe889fe7	-0.26684496
71	0xbd2adcde	-0.04171454
72	0x3daffda5	0.08593301
73	0x3d6fd75a	0.058554985
74	0xbbe55b72	-0.0069994265
75	0xbdbdce4f	-0.09267866
76	0x3ccdd413	0.025125539
77	0x3d89e4d3	0.06733098
78	0x3d507615	0.05089386
79	0x3d4334dd	0.047657836
80	0x3cfe9609	0.031077402
81	0x3dd51ab3	0.10405483
82	0x3cf9341a	0.030420352
83	0xbcaebf5b	-0.02133148
84	0xbd163ac6	-0.036677144
85	0x3dea44c8	0.114389
86	0xbc099508	-0.008397348
87	0x3da64b68	0.08119851
88	0x3bbde27b	0.005794821
89	0x3d25e60a	0.040502585
90	0x3c212c94	0.009837288
91	0xbdd7758c	-0.10520467
92	0xbc1988a5	-0.0093709575
93	0xbcb20f03	-0.021735674
94	0x3ddadee7	0.106870465
95	0xbe865240	-0.26234627
96	0xbe29f846	-0.16598615
97	0xbd913912	-0.070909634
98	0xbd7e1243	-0.062029134
99	0x3d2b171f	0.041770097
100	0x3e59e21e	0.21277663
101	0x3d8ba17d	0.06817911
102	0xbd099252	-0.033586808
103	0xbde45535	-0.111490645
104	0xbcb6eb5a	-0.022329021
105	0x3e39046b	0.18068092
106	0x3de0ab43	0.109701656
107	0x394153cc	0.00018437131
108	0xbce67848	-0.028133526
109	0xbd5e7632	-0.05431194
110	0x3e162f24	0.1466642
111	0x3e28d511	0.16487528
112	0xbdb86e27	-0.09005385
113	0x3d9379a0	0.072009325
114	0xbcf67ad8	-0.030087873
115	0x3e006545	0.12538631
116	0x3e3009e8	0.17191279
117	0xbd7a4494	-0.061100557
118	0x3d9d308b	0.076752745
119	0xbd0013a3	-0.031268727
120	0x3dc13d08	0.09435469
121	0x3e4add49	0.19810976
122	0xbda2b7a2	-0.079451814
123	0xbd8834b4	-0.06650677
124	0x3ddcc397	0.10779493
125	0x3df139cf	0.11778604
126	0xbdadf703	-0.08494379
127	0xbd96ebf1	-0.07369221
128	0x3c34a0e9	0.011024692
129	0x3bc8ab73	0.006123954
130	0xbb1aa00e	-0.0023593935
131	0xbe05a24b	-0.13050191
132	0xbc4606d6	-0.012086591
133	0xbca34972	-0.019932482
134	0xbbb27cae	-0.005446992
135	0xbd08e54a	-0.033421792
136	0xbde49c7c	-0.111626595
137	0xbcf9ccc5	-0.03049315
138	0x3cffc7a1	0.03122312
139	0xbc5f5c36	-0.013632825
140	0xbddfe601	-0.10932542
141	0xbde1a10f	-0.110170476
142	0xbcdd8e39	-0.027045356
143	0xbce1607f	-0.027511833
144	0x3d506cf2	0.05088515
145	0xbd5e9c13	-0.054348063
146	0x3c70be08	0.0146937445
147	0xbd15818e	-0.036500506
148	0x3cb44cfb	0.022009363
149	0x3ac6735c	0.0015140581
150	0xbd830c6d	-0.063988544
151	0xbdd40cbd	-0.10353992
152	0xbda273d3	-0.07932248
153	0xbcd0a08f	-0.025467185
154	0xbd83fbcb	-0.0644451
155	0x3e0cad1e	0.13737914
156	0xbd39a508	-0.0453234
157	0xbd0a27bf	-0.03372931
158	0xbc898c2d	-0.016790474
159	0x3dcdbe0e	0.10046016
160	0xbd22d7d2	-0.039756604
161	0xbdd67ef6	-0.104734346
162	0xbe09ac4f	-0.13444637
163	0x3aa3d74a	0.0012500074
164	0x3d698631	0.05701274
165	0xbd8dc21d	-0.0692179
166	0xbdbaee26	-0.091274545
167	0xbc8c48c8	-0.017124549
168	0xbc4849e3	-0.012224647
169	0x3d9d7823	0.0768893
170	0x3d0c455f	0.034245845
171	0xbc9da006	-0.019241344
172	0x3ba5344e	0.0050416356
173	0xbdd33706	-0.10313229
174	0x3ccf66b9	0.025317537
175	0x3d8ef80b	0.06980904
176	0x3db215de	0.08695577
177	0x3dc025a6	0.09382181
178	0x3e08c446	0.13356122
179	0x3d2bd1a9	0.041947994
180	0x3d418b4a	0.047251977
181	0xbd080624	-0.03320898
182	0xbc9fa63b	-0.019488445
183	0x3e18e097	0.14929424
184	0x3dc9638f	0.098334424
185	0x3d9f69d2	0.077838555
186	0x3d94f4e7	0.07273274
187	0xbcf5adf4	-0.029990174
188	0x3dbfc5a8	0.09363872
189	0x3de19240	0.11014223
190	0x3d189c6c	0.03725855
191	0x3cc2a65d	0.023760969
192	0x3de1b560	0.11020923
193	0x3dc6eb35	0.09712831
194	0x3d785334	0.060626224
195	0xbd1b543c	-0.03792213
196	0xbd018c50	-0.031627953
197	0x3e299c96	0.16563639
198	0x3e1bec74	0.15226918
199	0x3c8ecc03	0.017431265
200	0xbd8fae3f	-0.07015657
201	0xbcabe158	-0.020981476
202	0xbd4f3cf8	-0.050595254
203	0xbd2fb156	-0.04289373
204	0xbd53a1fd	-0.051668156
205	0x3d4c4fd1	0.049880806
206	0xbd907fdf	-0.070556395
207	0x3dcb9fc6	0.09942584
208	0xbcc11543	-0.023569709
209	0x3d80ada2	0.06283118
210	0x3cfd8fdd	0.030952388
211	0x3d72fddb	0.059324127
212	0xbbdec484	-0.006798329
213	0x3d1f055c	0.03882347
214	0xbda16cfd	-0.07882116
215	0x3beb2885	0.007176461
216	0xbcc68ed3	-0.024238026
217	0x3dc7ca3b	0.09755369
218	0x3d48c7b5	0.04901858
219	0x3d812396	0.063056156
220	0x3cc1c6f0	0.023654431
221	0xbd9d5a7c	-0.07683274
222	0xbd120556	-0.03564962
223	0x3d124ff1	0.03572077
224	0x3c93c885	0.018039951
225	0x3a281a4f	0.00064126117
226	0xbe71e915	-0.2362407
227	0xbbadaedb	-0.0053003854
228	0xbd910f57	-0.07083004
229	0xbc3b36b2	-0.011426615
230	0xbcbacc4a	-0.02280249
231	0xbe6bf728	-0.23043501
232	0xbb1c9ec6	-0.0023898347
233	0xbdb73666	-0.089459226
234	0x3cfebe5a	0.031096626
235	0xbd82daf5	-0.06389419
236	0xbe54cfb7	-0.20782362
237	0xbe2ca3de	-0.16859385
238	0xbdc083f0	-0.09400165
239	0x3c714e6f	0.014728173
240	0xbde126fe	-0.10993765
241	0xbe18c001	-0.14916994
242	0xbe42f8e1	-0.19040252
243	0xbdfbe476	-0.12299435
244	0xbdeaa7a1	-0.11457754
245	0xbd374341	-0.044741873
246	0xbe12fd8b	-0.14354531
247	0xbe0c1e56	-0.13683447
248	0xbd4bf64c	-0.049795434
249	0xbcf1c9d0	-0.029515177
250	0x3be22cfd	0.0069023357
251	0x3d2c28fa	0.042031266
252	0xbc22ab46	-0.00992853
253	0xbe1cee8c	-0.15325373
254	0xbe035df8	-0.12828815
255	0xbc892b88	-0.01674439

layer2.0.bias f4 [32]
0	0xbd08be90	-0.03338486
1	0xbcd2ab0c	-0.025716327
2	0x3d1a95d2	0.037740536
3	0xbc20ece2	-0.009822102
4	0x3b961d94	0.0045811627
5	0xbc46ccb1	-0.012133763
6	0x3c894fb9	0.016761648
7	0xbb608298	-0.0034257527
8	0xbd0c8954	-0.034310654
9	0x3a7adec7	0.00095699396
10	0xbbbc10e2	-0.0057393173
11	0x3cec1641	0.028819205
12	0xbd42d34b	-0.047564786
13	0x3cd52e06	0.026022922
14	0x3c133c92	0.008986609
15	0x3ca6c009	0.020355241
16	0x3d42d3c3	0.047565233
17	0xbd3593a5	-0.044330258
18	0x3cda4d1b	0.026648095
19	0xbd1f59fd	-0.03890418
20	0x3d39ea94	0.045389727
21	0xbd1619ac	-0.036645576
22	0x3d8b2c86	0.067956015
23	0x3d1de035	0.0385439
24	0xbccc44db	-0.024935177
25	0xbd21da95	-0.039515097
26	0x3b5dde24	0.003385433
27	0x3d2b628f	0.04184204
28	0xbc9fbe75	-0.019499997
29	0x3c8f72ca	0.01751079
30	0x3bb43407	0.005499366
31	0x3d513b0b	0.0510817

layer2.1.weight f4 [32]
0	0x3f894a5c	1.0725818
1	0x3f5f5798	0.8724303
2	0x3f15c80d	0.5850838
3	0x3f166984	0.58754754
4	0x3f8e23d5	1.1104685
5	0x3f20e9a4	0.6285651
6	0x3f1a6f10	0.6032572
7	0x3f188efc	0.59593177
8	0x3eec9b23	0.4621211
9	0x3f8f33ca	1.118768
10	0x3f7b8d6d	0.98262674
11	0x3f8350ab	1.0258993
12	0x3f8ae5d4	1.0851388
13	0x3f85f7f7	1.0466298
14	0x3f8c9b3e	1.0984876
15	0x3f484383	0.78228015
16	0x3f7ea799	0.99474484
17	0x3f4f0783	0.80870837
18	0x3f959831	1.168707
19	0x3fa2b80c	1.2712417
20	0x3f5a506e	0.85278976
21	0x3f4235d8	0.7586341
22	0x3f91e717	1.1398648
23	0x3ecac0e4	0.3960029
24	0x3f28bdc9	0.6591459
25	0x3f71d920	0.9447193
26	0x3f6222b4	0.883342
27	0x3f0d52fc	0.5520475
28	0x3eeebda0	0.46629047
29	0x3f5ac772	0.8546058
30	0x3f1dfe4a	0.6171614
31	0x3f127676	0.5721201

layer2.1.bias f4 [32]
0	0xbecd66ff	-0.40117642
1	0xbe8e8cb7	-0.27841732
2	0xbe36212b	-0.1778609
3	0xbe626d6a	-0.2211205
4	0xbe84c321	-0.25930122
5	0xbe3a777e	-0.18209645
6	0xbe18c606	-0.1491929
7	0xbe7dcc5e	-0.24784991
8	0xbe08047d	-0.13282962
9	0xbe727887	-0.2367879
10	0xbece0148	-0.40235353
11	0xbe99f449	-0.30069187
12	0xbeb6067b	-0.3555182
13	0xbe9e769d	-0.3094987
14	0xbec848fb	-0.3911818
15	0xbea71c73	-0.32638893
16	0xbe854f7f	-0.26037213
17	0xbeab2179	-0.33423975
18	0xbe9fc59f	-0.3120546
19	0xbe61aefd	-0.22039409
20	0xbea8fb99	-0.33004454
21	0xbea3a2c9	-0.31960133
22	0xbe9ca990	-0.30598116
23	0xbe466a4b	-0.19376485
24	0xbe373889	-0.1789266
25	0xbe9e0667	-0.3086426
26	0xbe346a86	-0.1761876
27	0xbe5b1695	-0.21395333
28	0xbe80e25d	-0.251727
29	0xbe93034f	-0.28713462
30	0xbe5a471d	-0.2131619
31	0xbe657d86	-0.22411165

layer2.1.running_mean f4 [32]
0	0xbe9133d0	-0.28359842
1	0xbe7bda1e	-0.24594924
2	0xbe676762	-0.22598031
3	0x3e0d7f4a	0.13818088
4	0xbd466649	-0.04843739
5	0x3ef09750	0.46990442
6	0xbe603dda	-0.21898594
7	0xbe8692a8	-0.26283765
8	0x3f180319	0.59379727
9	0x3d0d1352	0.034442253
10	0x3e52f1b2	0.20600012
11	0x3eb8393e	0.35981172
12	0x3e81f083	0.25378808
13	0xbeb3025e	-0.34962744
14	0x3e360309	0.17774595
15	0x3ea6ff80	0.32616806
16	0xbeb86e3f	-0.3602161
17	0x3e9bca7e	0.30427927
18	0xbef97c89	-0.48727825
19	0x3e4746d2	0.1946061
20	0x3ed947e1	0.42437652
21	0xbd561507	-0.052266147
22	0xbeb5831e	-0.35451597
23	0xbeacf317	-0.33779213
24	0xbe986d71	-0.29770997
25	0x3efa92f5	0.48940244
26	0xbddef0cc	-0.10885772
27	0xbec927ae	-0.39288086
28	0xbe8473f6	-0.2586972
29	0xbec133c5	-0.3773481
30	0xbebc96c1	-0.36833766
31	0xbe09bc1b	-0.13450663

layer2.1.running_var f4 [32]
0	0x3f142e34	0.57883
1	0x3f0c30ec	0.5476215
2	0x3edefce2	0.4355231
3	0x3eae60eb	0.34058318
4	0x3ef22ff6	0.47302216
5	0x3eb45e7c	0.35228336
6	0x3ef25798	0.47332454
7	0x3ef3a1c1	0.47584346
8	0x3ec8ed50	0.39243555
9	0x3ef85e53	0.48509464
10	0x3ec2d1f7	0.38050815
11	0x3edaa3b0	0.4270301
12	0x3ec262b9	0.37965944
13	0x3eb23dad	0.3481268
14	0x3f006475	0.50153285
15	0x3f0e5867	0.5560364
16	0x3eff9799	0.49920347
17	0x3ec92069	0.3928254
18	0x3ee7b03f	0.45251653
19	0x3f3e3465	0.742987
20	0x3eef8d55	0.46787515
21	0x3f00d78b	0.5032889
22	0x3eb626a4	0.35576355
23	0x3f1cc533	0.612384
24	0x3f0ae4d8	0.5425544
25	0x3ed52c91	0.41635564
26	0x3ef5b67e	0.47990793
27	0x3f1503b4	0.58208776
28	0x3eb6485f	0.3560209
29	0x3edc11e6	0.42982405
30	0x3edb7895	0.42865434
31	0x3ef00aa5	0.4688312

fc.weight f4 [10, 1568]
0	0x3c2dfd44	0.010619465
1	0xbbf487dc	-0.0074624848
2	0x3d82e768	0.063917935
3	0xbdb1fa59	-0.08690328
4	0x3b98b4dd	0.0046602325
5	0xbdcab647	-0.09898048
6	0x3d1292ee	0.035784654
7	0x3d0c3799	0.03423271
8	0x3c0099c3	0.00784916
9	0x3b8dccb6	0.004327382
10	0x3c8cab6b	0.017171582
11	0xbc01e4c2	-0.007928075
12	0xbd57435e	-0.05255448
13	0x3d94ca86	0.07265191
14	0x3d1941ce	0.037416272
15	0xbc04314a	-0.008068392
16	0xbd9cc922	-0.076555505
17	0xbdcafa0b	-0.09910973
18	0xbd0edf6c	-0.03488104
19	0xbd8d6f46	-0.06905989
20	0x3ca87363	0.020562833
21	0x3d9cc150	0.07654059
22	0x3d710021	0.058838014
23	0x3dcb689a	0.099320605
24	0x3df2409b	0.11828729
25	0x3dc7cce4	0.09755877
26	0xbd22aa6a	-0.0397133
27	0xbc5bfe60	-0.013427347
28	0x3d0db8f3	0.03460021
29	0x3cbf2b66	0.023336124
30	0x3de3549d	0.11100123
31	0x3e093851	0.13400389
32	0x3d7e76d5	0.062125046
33	0xbd5d1b10	-0.053980887
34	0xbd65a42e	-0.056064777
35	0xbb56d60d	-0.0032781393
36	0x3ca32751	0.019916208
37	0x3da25abb	0.07927462
38	0x3e512fec	0.20428437
39	0xbdaf4105	-0.08557323
40	0xbd1d493e	-0.038399927
41	0xbc2af51e	-0.010434417
42	0x3d847ba4	0.06468895
43	0xbc79971e	-0.015233783
44	0x3cf0036f	0.029298512
45	0xbe08a3ae	-0.13343689
46	0xbe2a9e53	-0.16661958
47	0xbd8355aa	-0.064128235
48	0xbdd25395	-0.10269848
49	0xbccbbe39	-0.024870979
50	0xbce1456f	-0.027498929
51	0x3cdc4666	0.026889037
52	0xbd9bbfb1	-0.076049216
53	0xbdb7dd01	-0.089777
54	0xbcc95b85	-0.024579773
55	0x3da245ac	0.07923445
56	0xbdc0a84a	-0.094070986
57	0xbd37990e	-0.0448237
58	0xbd70ed2b	-0.05881993
59	0xbe079498	-0.13240278
60	0xb933eafc	-0.00017158309
61	0xbdb2f7e7	-0.0873869
62	0x3ce12797	0.027484698
63	0x3d99be8d	0.07507048
64	0xbd460669	-0.048345957
65	0xbcf40a6a	-0.029790122
66	0x3cc381e1	0.023865642
67	0xbb5b65b1	-0.003347736
68	0xbd9879de	-0.07445119
69	0x3c9cd172	0.01914284
70	0xbe24711c	-0.16058773
71	0xbe0560a0	-0.13025141
72	0xbda6916c	-0.08133206
73	0xbe0740de	-0.13208339
74	0xbde959e5	-0.11394099
75	0xbdf2b989	-0.11851794
76	0xbe90539a	-0.28188783
77	0xbc51635f	-0.01278004
78	0x3ceac875	0.028660038
79	0x3d26885d	0.04065739
80	0xbcc56854	-0.0240976
81	0x3d12db87	0.03585389
82	0x3a5d4e7d	0.00084421766
83	0xbdd3a7df	-0.10334753
84	0xbcb57341	-0.022149684
85	0xbd06b671	-0.032888833
86	0x3e0b284f	0.13589595
87	0xbc10043d	-0.008790073
88	0x3d6a1281	0.057146553
89	0x3e19c8c9	0.15018
90	0xbd167e27	-0.036741402
91	0xbdacdfaa	-0.08441098
92	0xbde8446f	-0.11341178
93	0x3d6002fe	0.054690354
94	0x3bf60744	0.0075081903
95	0xbcb16a0e	-0.021657016
96	0x3b1e0506	0.002411188
97	0x3cdb71e4	0.026787706
98	0xbdaf1df1	-0.08550633
99	0x3c8b8832	0.017032716
100	0xbd28c5d5	-0.041204292
101	0xbca1edde	-0.019766744
102	0xbd358c2e	-0.04432314
103	0xbc525153	-0.012836772
104	0xbd31848b	-0.043339293
105	0xbcbe3e8a	-0.02322318
106	0xbe3b1eb3	-0.1827343
107	0x3dd6a6e4	0.104810506
108	0x3ceeff14	0.029174365
109	0xbcd03a1c	-0.025418334
110	0xbdc783dd	-0.09741948
111	0xbdd48c80	-0.10378361
112	0x3c0c2b03	0.008555177
113	0xbdde55e3	-0.10856225
114	0x3d890e2c	0.06692156
115	0x3dbf658f	0.09345543
116	0xbd1c10f4	-0.038102105
117	0x3d597425	0.05308928
118	0xbe0eec58	-0.13957345
119	0x3cc083f9	0.02350043
120	0xbce5c59a	-0.028048325
121	0x3d4cba1a	0.049982168
122	0x3bb69e07	0.0055730375
123	0x3d373736	0.044730388
124	0xbd23400b	-0.039855998
125	0x3d5a8434	0.053348735
126	0xbcc148b1	-0.023594232
127	0xbdb36b45	-0.087606944
128	0xbe24770c	-0.16061038
129	0xbcc2039c	-0.023683362
130	0xbd93b8a2	-0.0721295
131	0x3df760f0	0.12079036
132	0x3d842f42	0.06454326
133	0x3d05ceb3	0.032667827
134	0x3d1f3b37	0.03887483
135	0x3d99731d	0.07492659
136	0xbd0ae654	-0.033911064
137	0x3c7728e3	0.015085432
138	0x3d579488	0.052631885
139	0xbc698fb9	-0.014255458
140	0x3d7d3abb	0.061823588
141	0x3d70999c	0.058740243
142	0x3d336c17	0.043804254
143	0x3b7a3c87	0.003818305
144	0x3d611271	0.054949228
145	0xbb92fd31	-0.004485749
146	0x3d2a0907	0.041512515
147	0x3ddbfef8	0.10741991
148	0xbded2de8	-0.115810215
149	0xbdce6420	-0.10077691
150	0xbd7c7db6	-0.061643325
151	0xbd3de420	-0.046360135
152	0xbcbe1bcd	-0.023206616
153	0x3dbfcda7	0.09365397
154	0xbc9859c7	-0.018597497
155	0x3d036b26	0.032084607
156	0x3db25297	0.08707159
157	0x3d4dc8a2	0.050240166
158	0xbd10eece	-0.035383992
159	0xbdb72299	-0.08942146
160	0x3d625e11	0.05526549
161	0x3da1a7ed	0.078933574
162	0x3c9312c8	0.017953292
163	0xbda5378a	-0.08067234
164	0xbe7a735e	-0.24458072
165	0xbda20943	-0.07911923
166	0xbe170b79	-0.1475047
167	0xb958766d	-0.00020643482
168	0xbcdceec9	-0.02696933
169	0xbd3c1a5e	-0.045923583
170	0xbc3cc5f6	-0.011521807
171	0x3d4bd2a9	0.049761448
172	0xbdd3d8ca	-0.103440836
173	0xbe0ae3f6	-0.13563523
174	0x3c17b189	0.009258636
175	0x3c9458c5	0.018108735
176	0xbdd449d4	-0.10365644
177	0x3c63999b	0.013891603
178	0xbd8d8828	-0.06910735
179	0x3d712d39	0.05888102
180	0x3d7bdf6e	0.061492376
181	0xbd9e8a7a	-0.07741256
182	0x38c84b53	9.5507734e-05
183	0xbe50c18b	-0.20386331
184	0xbd20f128	-0.039292485
185	0xbc4380d9	-0.011932575
186	0x3d133c6f	0.035946306
187	0x3d5bb96c	0.05364363
188	0xbc6e1744	-0.014531914
189	0x3caa03a8	0.020753697
190	0x3c4afefb	0.012389894
191	0x3cf6fa5b	0.030148676
192	0xbc33279e	-0.010934738
193	0x3ba39b73	0.004992896
194	0xbd48de77	-0.049040284
195	0xbdddb56e	-0.108256206
196	0x3c8fa300	0.01753378
197	0xbd933612	-0.071880475
198	0xbd609fd4	-0.054839924
199	0xbd1126f5	-0.035437543
200	0xbd9700da	-0.07373209
201	0x3dbaae02	0.091152206
202	0x3dc0a866	0.094071195
203	0xba01fad8	-0.0004958338
204	0xbc2bfc78	-0.010497205
205	0x3d1d17f0	0.038352907
206	0x3c7b1aad	0.015326184
207	0x3db33567	0.0875042
208	0x3df214de	0.11820386
209	0x3dbdaede	0.09261869
210	0x3d095597	0.03352889
211	0x3c2fd690	0.010732308
212	0x3d55ba48	0.052179605
213	0xbd0f0221	-0.03491414
214	0x3d9a6fe2	0.07540871
215	0x3dcb618c	0.09930715
216	0xbba64c4a	-0.0050750123
217	0x3c24703b	0.010036523
218	0x3bd435a2	0.00647612
219	0x3da297b3	0.079390906
220	0x3d9cfc41	0.07665301
221	0xbd9137db	-0.07090732
222	0xbe54ebb5	-0.2079304
223	0xbd28dee6	-0.041228198
224	0x3a178cac	0.00057811546
225	0x3d8f979b	0.07011338
226	0x3cbceeb5	0.023063043
227	0x3c5ed65c	0.013600912
228	0xbe7d73f8	-0.2475127
229	0xbcf7ec06	-0.030263912
230	0x3cb82ac3	0.022481328
231	0x3db63893	0.088975094
232	0x3d66d879	0.05635879
233	0x3dddc0da	0.10827799
234	0xbd0bf3e4	-0.03416814
235	0xbba28dea	-0.004960765
236	0x3d9a9e90	0.07549775
237	0x3a1daea4	0.0006015098
238	0x3d893a15	0.067005314
239	0x3bcabf42	0.0061873505
240	0xbe5112cf	-0.20417331
241	0x3c3cc2f7	0.011521093
242	0x3e25c7ca	0.16189495
243	0x3d6f43f1	0.058414403
244	0xbcb67458	-0.022272274
245	0x3c193ef9	0.009353393
246	0x3c5e3a4e	0.013563706
247	0x3cff66bd	0.03117692
248	0xbd252a8e	-0.040323786
249	0xbd69c932	-0.05707664
250	0x3da908fc	0.08253667
251	0x3b8266d0	0.0039795414
252	0x3d512889	0.051064048
253	0x3a916f88	0.0011095861
254	0x3ca63e29	0.020293312
255	0xbdb25dd1	-0.087093

fc.bias f4 [10]
0	0x3d734745	0.05939414
1	0x3d976fe2	0.07394387
2	0xbce22c8e	-0.027609136
3	0xbcd4d119	-0.025978612
4	0xbd7168b7	-0.058937754
5	0x3c31b70b	0.0108468635
6	0xbd0a20f0	-0.033722818
7	0xbc4ca36d	-0.012490136
8	0xbd02ac5d	-0.03190266
9	0xbbfa0e5b	-0.007631106
