sample_checkpoint_model_epoch10.pth (torch_old, 118727 bytes, 14 tensors)

layer1.0.weight f4 [16, 1, 5, 5]
0	0x3d8060de	0.06268476
1	0xbe2233aa	-0.15840021
2	0xbe2d0435	-0.16896136
3	0xbdb0c381	-0.086310394
4	0xbe56e440	-0.20985508
5	0x3e00a74d	0.1256382
6	0xbd3094ae	-0.043110542
7	0x3ca2e457	0.019884272
8	0xbd868d9c	-0.065699786
9	0xbd2f4194	-0.04278715
10	0x3e02b6a9	0.12764992
11	0x3e444058	0.1916517
12	0x3e7aaaab	0.24479167
13	0x3da27427	0.079323106
14	0x3d5d2e7e	0.053999417
15	0xbd5ab49f	-0.05339491
16	0x3cd3ef1a	0.025870848
17	0x3d3af33e	0.04564213
18	0x3e2a6010	0.16638207
19	0x3e0398a6	0.128512
20	0xbe069e03	-0.13146214
21	0xbe068db3	-0.13139991
22	0xbdd43d57	-0.10363262
23	0xbe36ef4a	-0.17864719
24	0x3d4abc70	0.049496114
25	0xbca0d3fa	-0.019632328
26	0x3e07e9c6	0.13272771
27	0x3df12e57	0.11776417
28	0xbe838365	-0.25686184
29	0xba39618c	-0.00070717256
30	0x3d68fc5c	0.056881294
31	0x3e388ae7	0.18021737
32	0x3e05e90c	0.13077182
33	0xbe93a8e9	-0.28839806
34	0xbea184da	-0.3154667
35	0xbd603e26	-0.05474677
36	0x3e8a3cf9	0.26999643
37	0xbd0c4b0e	-0.034251265
38	0xbcd8f8d9	-0.026485847
39	0xbe8a0ea4	-0.26964295
40	0x3e090ccd	0.1338379
41	0xbdadc19b	-0.08484193
42	0x3d8b26a0	0.067944765
43	0xbd9a0c71	-0.07521904
44	0xbe55885a	-0.20852795
45	0x3d1a1253	0.03761513
46	0xbdfcc423	-0.123420976
47	0x3ba0ea98	0.0049107783
48	0xbe21a6e2	-0.15786317
49	0xbdfd002a	-0.12353547
50	0xbe1530d6	-0.1456941
51	0xbe32cfca	-0.17462078
52	0xbd9ac3d9	-0.07556886
53	0xbdcde1c6	-0.100528285
54	0x3e3af6a4	0.18258148
55	0x3df55092	0.11978258
56	0xbdbd4d2a	-0.092432335
57	0xbdf2546e	-0.1183251
58	0x3eb422e5	0.35182872
59	0x3d88b44d	0.06675015
60	0xbdd4cdb7	-0.103907995
61	0x3d290315	0.041262705
62	0x3e5cb31b	0.21552698
63	0x3e8e5c94	0.27805007
64	0xbe2d7e1e	-0.16942641
65	0x3d06cae9	0.032908354
66	0x3dc42a2f	0.095783584
67	0x3deeaf2a	0.11654504
68	0xbe54857d	-0.20754047
69	0xbe8309b2	-0.25593334
70	0x3e167a57	0.14695106
71	0xba05b424	-0.00051003904
72	0xbc012f9c	-0.007884886
73	0xbe091cd5	-0.13389905
74	0xbd1d2181	-0.03836203
75	0x3e23155c	0.15926117
76	0x3d521309	0.051287685
77	0xbdade87c	-0.084916085
78	0xbe6c5d45	-0.23082455
79	0xbd97345f	-0.07383036
80	0xbd0d9cee	-0.034573488
81	0xbe7a52e3	-0.24445681
82	0xbeb09092	-0.34485298
83	0x3d1165c2	0.035497434
84	0x3dc19be6	0.094535634
85	0xbd91ccb2	-0.07119121
86	0xbeaf839e	-0.34280103
87	0x3d9a881f	0.07545494
88	0x3e001810	0.12509179
89	0x3dd5a1a3	0.104312204
90	0xbdcd5648	-0.100262225
91	0xbe3071bc	-0.17230886
92	0x3de5f971	0.11229218
93	0x3df0116f	0.11722075
94	0xbdd53395	-0.10410229
95	0xbe9c8d90	-0.30576754
96	0xbd1f4392	-0.0388828
97	0x3d6a3242	0.057176836
98	0xbccb1682	-0.024791006
99	0xbd846eef	-0.064664714
100	0x3e3015af	0.17195772
101	0xbde35e6e	-0.111019954
102	0x3ca61719	0.020274686
103	0x3b9cfe1f	0.004791036
104	0xbe011e68	-0.12609255
105	0xbe0a14b2	-0.13484457
106	0x3e003ce0	0.12523222
107	0xbd954c47	-0.072899394
108	0x3be4be19	0.006980669
109	0x3cc554c7	0.024088277
110	0x3ca4aebb	0.02010285
111	0x3d530f91	0.051528517
112	0x3dc9f7fb	0.09861752
113	0xbe91c391	-0.28469518
114	0xbdb96122	-0.0905173
115	0xbd312031	-0.04324359
116	0x3dadfdaa	0.08495648
117	0x3ea2b6a5	0.31779972
118	0xbe6bff19	-0.23046531
119	0xbe5f9947	-0.21835814
120	0xbeb9449b	-0.36185154
121	0xbc86325a	-0.016381431
122	0x3ea9cdaf	0.33164737
123	0xbccab94a	-0.024746556
124	0x3dffe7c8	0.12495381
125	0xbd82a380	-0.063788414
126	0xbe833834	-0.25628817
127	0xbe064243	-0.13111214
128	0x3d7f90f7	0.06239411
129	0x3e09ee4e	0.13469812
130	0xbdec847c	-0.11548707
131	0x3da8b0a6	0.08236818
132	0x3ea97490	0.33096743
133	0x3e3b9e3f	0.18322085
134	0x3d6147b9	0.05500004
135	0x3e28a328	0.16468489
136	0x3df1d3b7	0.118079595
137	0x3c96c84e	0.01840606
138	0xbe6dbe9c	-0.23217243
139	0xbe67726d	-0.22602244
140	0xbd8e356a	-0.06943782
141	0xbe090dc9	-0.13384165
142	0xbe968b81	-0.29403308
143	0xbd21234b	-0.0393403
144	0x3d3861b1	0.04501504
145	0x3a8ba412	0.0010653755
146	0x3c050334	0.0081184395
147	0x3d694be5	0.056957144
148	0x3e0406a4	0.12893158
149	0x3e08a171	0.13342835
150	0xbd07376a	-0.03301183
151	0x3e7b0f6e	0.24517605
152	0xbc4a884f	-0.0123616
153	0xbe13f63f	-0.14449404
154	0xbde227d4	-0.11042753
155	0xbea082d1	-0.31349805
156	0xbee2e151	-0.44312528
157	0xbe848853	-0.25885257
158	0xbdf75bd7	-0.12078064
159	0xbe25c680	-0.16189003
160	0xbdfac71c	-0.12245008
161	0x3dc17e91	0.09447969
162	0x3d982ab1	0.07430018
163	0x3db2a4c7	0.08722835
164	0xbd823f55	-0.06359736
165	0x3de7ffda	0.11328097
166	0x3acb6beb	0.0015519833
167	0xbc588d75	-0.01321732
168	0xbd31116b	-0.0432295
169	0xbd7ebf40	-0.06219411
170	0xbd96beaa	-0.07360585
171	0x3d017e36	0.031614505
172	0x3d28b985	0.04119255
173	0x3df58f00	0.11990166
174	0x3e50aef9	0.20379247
175	0x3e46fe24	0.19432884
176	0x3e3c28cc	0.18374938
177	0x3c8ba02e	0.017044153
178	0xbda4a183	-0.080386184
179	0x3db82fb6	0.08993475
180	0x3c879bd0	0.01655379
181	0x3dbc08f3	0.091813944
182	0xbe6ff2e6	-0.23432502
183	0xbde59c6c	-0.11211476
184	0xbe0d8c66	-0.13823089
185	0x3e17f8c0	0.14840984
186	0xbe80725a	-0.25087243
187	0xbea71658	-0.32634234
188	0xbd0e430e	-0.034731917
189	0xbc87c1c3	-0.016571885
190	0xbd6c212f	-0.057648834
191	0xbe4d5035	-0.20050128
192	0xbe132171	-0.14368226
193	0x3df776a0	0.12083173
194	0x3e8e2fc9	0.27770832
195	0xbda61b24	-0.081106454
196	0x3df929f7	0.12166207
197	0x3e057705	0.13033684
198	0x3e3760d5	0.17908032
199	0xbe1777f0	-0.14791846
200	0x3e004a22	0.1252828
201	0xbdb3e4d8	-0.08783883
202	0x3e4188b2	0.18899801
203	0xbd1cd387	-0.038287666
204	0xbc990a51	-0.018681677
205	0xbdf95dae	-0.12176071
206	0xbd9bd8f2	-0.076097384
207	0xbd69fe0e	-0.05712705
208	0x3da9f8e3	0.082994245
209	0xbcd3cf66	-0.025855731
210	0xbccf4379	-0.025300728
211	0xbd1d8bb0	-0.038463295
212	0xbe81b459	-0.25332907
213	0x3dc41e8e	0.0957614
214	0x3e640bd8	0.22270143
215	0x3e6912f4	0.22761136
216	0x3dc94500	0.09827614
217	0xbeaaae53	-0.33336124
218	0xbe52e55a	-0.20595303
219	0x3e071fe9	0.13195767
220	0xbe215303	-0.15754323
221	0x3ea03257	0.31288406
222	0xbde947ee	-0.113906726
223	0xbe16b93d	-0.147191
224	0x3bd4aa37	0.0064900178
225	0xbe62ffda	-0.22167912
226	0xbd0735d5	-0.033010323
227	0x3de09556	0.109659836
228	0x3db5edea	0.08883269
229	0x3e880904	0.26569378
230	0xbdf4d3bb	-0.11954447
231	0xbdb942a3	-0.09045913
232	0x3e4313f8	0.19050586
233	0xbd13454f	-0.03595477
234	0x3d6e9575	0.058248002
235	0xbd2b90e1	-0.041886214
236	0xbe04d6c4	-0.12972552
237	0x3e069c72	0.13145617
238	0x3e3f36ae	0.18673202
239	0xbd139534	-0.036030963
240	0xbe74ab19	-0.23893394
241	0xbe0f9957	-0.14023338
242	0xbddbc441	-0.10730792
243	0xbe273dbd	-0.16332145
244	0xbe51b377	-0.20478617
245	0x3a2a94a0	0.0006507132
246	0xbe98de4c	-0.298571
247	0xbeae43ff	-0.34036252
248	0xbe5779d2	-0.21042565
249	0x3d665f3d	0.05624317
250	0x3e9fcf55	0.3121287
251	0x3dd637b7	0.104598455
252	0x3ddf320f	0.1089822
253	0x3e3732ea	0.17890516
254	0x3cb3910b	0.021919748
255	0xbd2a8a74	-0.041635945

layer1.0.bias f4 [16]
0	0xbe122e96	-0.14275584
1	0x3df22a07	0.11824422
2	0xbe361252	-0.17780426
3	0xbe5f9684	-0.21834761
4	0xbd304b7c	-0.043040738
5	0xbe0a1d25	-0.1348768
6	0xbc9fc7b5	-0.019504407
7	0xbd67c783	-0.056586754
8	0x3da864b2	0.08222331
9	0xbdaa741e	-0.08322929
10	0xbc8e7937	-0.017391784
11	0x3d961925	0.07329015
12	0x3b348863	0.0027547113
13	0xbe051926	-0.12997875
14	0x3ddb86bb	0.10719057
15	0x3e27e4c7	0.16395865

layer1.1.weight f4 [16]
0	0x3e85f989	0.26166943
1	0x3f500976	0.81264436
2	0x3e983b19	0.29732588
3	0x3f0a9d27	0.54146045
4	0x3e7b8315	0.24561723
5	0x3f27b148	0.65504885
6	0x3f13d317	0.5774397
7	0x3f4bfac0	0.7967949
8	0x3f06050e	0.5235146
9	0x3f645cdf	0.8920421
10	0x3e51a03d	0.20471282
11	0x3e8dd5eb	0.2770227
12	0x3f05d894	0.52283597
13	0x3f21c1ce	0.6318635
14	0x3eedd009	0.4644778
15	0x3e9e80f3	0.30957755

layer1.1.bias f4 [16]
0	0xbe3e85c8	-0.18605721
1	0xbe8b9b4b	-0.27266917
2	0xbe8e7839	-0.27826098
3	0xbe492958	-0.19644678
4	0xbe572ceb	-0.21013229
5	0xbee635b3	-0.44962844
6	0xbe85a769	-0.26104286
7	0xbe208321	-0.15675022
8	0xbe2d7383	-0.16938595
9	0xbe9f28a2	-0.31085688
10	0xbea2e6a1	-0.3181658
11	0xbe2669f1	-0.16251351
12	0xbe453a40	-0.19260502
13	0xbe1441ee	-0.14478275
14	0xbe6312d9	-0.22175159
15	0xbe84a0be	-0.25903887

layer1.1.running_mean f4 [16]
0	0xbe40f78a	-0.18844429
1	0x3f34c24c	0.70608974
2	0xbe68df86	-0.22741517
3	0x3f2a2b89	0.6647268
4	0x3dcc4b7e	0.099753365
5	0xbd8fb93b	-0.07017752
6	0x3f199c19	0.6000381
7	0x3e5ad951	0.21371962
8	0x3e46f3a7	0.19428883
9	0x3f43f64c	0.76547694
10	0xbfbb929e	-1.4654119
11	0x3ed44cd0	0.41464853
12	0x3e1db76d	0.15402003
13	0x3f2cdd8e	0.67525566
14	0x3d62f9b3	0.055413913
15	0x3e41cd30	0.18925929

layer1.1.running_var f4 [16]
0	0x3e146ed0	0.14495397
1	0x3f29600f	0.661622
2	0x3e3ea522	0.1861768
3	0x3f111fbb	0.5668904
4	0x3df5545d	0.11978982
5	0x3dc6813a	0.09692617
6	0x3ecf00e1	0.40430358
7	0x3e8e15d1	0.2775102
8	0x3dacdfb0	0.084411025
9	0x3f39037c	0.7227094
10	0x3f5e1dde	0.86764324
11	0x3ea86ad4	0.32894003
12	0x3f131aca	0.5746275
13	0x3f0de5bf	0.5542869
14	0x3e3df081	0.18548776
15	0x3dffe312	0.12494482

layer2.0.weight f4 [32, 16, 5, 5]
0	0x3d2e5c5f	0.04256856
1	0x3dcadf0f	0.09905826
2	0x3daeb42c	0.08530459
3	0xbbbe892a	-0.005814691
4	0x3d17babd	0.037043322
5	0x3d2ffad2	0.04296381
6	0x3deb3926	0.114855096
7	0x3d356948	0.044289857
8	0x3abd8077	0.0014457841
9	0x3d9c45ba	0.07630487
10	0xbc964ee8	-0.018348172
11	0xbd6f69a8	-0.05845037
12	0x3c590237	0.013245157
13	0x3d338500	0.04382801
14	0x3ac01bdc	0.001465674
15	0x3cfa28c3	0.030537015
16	0x3b55adb0	0.0032604747
17	0x3d0d555d	0.034505237
18	0x3da97449	0.08274133
19	0xbc9d2564	-0.019182868
20	0xbcbba129	-0.022903996
21	0x3d7ce473	0.061741304
22	0x3e26334f	0.1623051
23	0x3e09192a	0.13388506
24	0x3db04c6f	0.086083286
25	0x3d28e02c	0.041229412
26	0x3d4483a0	0.04797709
27	0xbc23aebd	-0.009990391
28	0x3dc209eb	0.09474548
29	0x3d0847be	0.033271544
30	0x3db73d2b	0.08947214
31	0xbb3a013d	-0.0028382086
32	0x3dc9d077	0.09854215
33	0x3db0cb02	0.08632471
34	0xbcd75669	-0.02628632
35	0x3dae3ead	0.08508048
36	0x3d010250	0.031496346
37	0x3e152411	0.1456454
38	0x3bf33703	0.0074223294
39	0xbc93c374	-0.018037535
40	0x3db3dbb1	0.08782137
41	0xbc136db8	-0.008998327
42	0x3dbc8097	0.09204214
43	0x3b142904	0.0022607455
44	0x3c9fbc5c	0.019498996
45	0xbdbddc46	-0.092705294
46	0xbd3f52b6	-0.04670974
47	0xbde6abf7	-0.112632684
48	0xbd642bc2	-0.055705793
49	0xbc2d95df	-0.010594814
50	0x3d46be5b	0.04852138
51	0xbd38dc20	-0.045131803
52	0x3db0f0fe	0.086397156
53	0x3d3a0a77	0.045420136
54	0x3d8aa6ef	0.06770121
55	0x3e0c93ed	0.13728304
56	0x3e05aa9e	0.13053367
57	0x3dd18891	0.10231126
58	0x3d7d3e0f	0.06182676
59	0x3c850444	0.016237386
60	0x3dc614f3	0.096719645
61	0x3e09a039	0.13440026
62	0x3d61e264	0.055147544
63	0x3e14e3d9	0.14540042
64	0x3e1b92f2	0.15192774
65	0xbbb2dc81	-0.005458415
66	0x3db428af	0.08796822
67	0x3d8a6c09	0.06758887
68	0x3c42d315	0.011891146
69	0x3d30f6c0	0.04320407
70	0xbe2836d8	-0.16427171
71	0xbd19c42c	-0.0375406
72	0xbd9c5f71	-0.076353915
73	0x3c9abd9c	0.01888924
74	0xbc76ae77	-0.015056244
75	0xbd397940	-0.04528165
76	0x3cee869c	0.029116921
77	0xbd0ce542	-0.034398325
78	0xbde4c10f	-0.111696355
79	0xbcda5ae9	-0.026654677
80	0x3d6f0567	0.05835476
81	0x3dd0ccaa	0.101952866
82	0x3da96494	0.08271137
83	0xbd7c4b34	-0.061595157
84	0xbda90a6f	-0.08253943
85	0xbccff227	-0.025384022
86	0xbb1f8979	-0.0024343415
87	0x3ce51b9d	0.027967269
88	0xbdce595d	-0.100756384
89	0x3da5b8f7	0.0809192
90	0xbd3b04f2	-0.045659013
91	0x3cbcda29	0.023053246
92	0xbe1704a5	-0.14747865
93	0xbdab48af	-0.08363473
94	0x3d1c8ca0	0.038220048
95	0xbe40cb08	-0.1882745
96	0xbe5355a2	-0.20638135
97	0xbea9d827	-0.33172724
98	0xbe0d9811	-0.1382754
99	0xbdf8d304	-0.12149623
100	0x3de8807d	0.11352632
101	0xbdd86e6a	-0.10567935
102	0x3d890387	0.06690126
103	0xbe7dc784	-0.2478314
104	0xbc363a24	-0.01112226
105	0x3e07dd5b	0.13268034
106	0xbbd45ca0	-0.0064807683
107	0x3de1c4d1	0.11023868
108	0xbd4b5791	-0.049644057
109	0x3de3ef5c	0.111296386
110	0x3dc447b6	0.0958399
111	0x3b67b03c	0.0035352847
112	0x3e1ccc93	0.15312414
113	0x3e12a172	0.14319399
114	0xbc890ef3	-0.016730761
115	0x3e2c5ce1	0.16832305
116	0x3dd70d1e	0.10500549
117	0x3e2887f8	0.16458118
118	0x3d94716d	0.07248197
119	0xbdab0bf5	-0.0835189
120	0x3e4ac4a0	0.19801569
121	0x3ba6bcab	0.005088409
122	0x3d51b270	0.051195562
123	0x3d85183d	0.06498764
124	0xbda84077	-0.08215421
125	0x3c8f426d	0.017487729
126	0xbd9dff0c	-0.07714662
127	0xbd38e3f5	-0.04513927
128	0x3b5343cf	0.0032236462
129	0xbd7c5a2a	-0.061609425
130	0x3c91c3de	0.017793592
131	0xbe1c5425	-0.15266474
132	0xbd393f23	-0.045226227
133	0x3d065b26	0.03280177
134	0xbd87e16d	-0.066347934
135	0xbdf69e9d	-0.12041972
136	0xbc30f5fd	-0.010800836
137	0xbc8507d2	-0.01623908
138	0x3c2dacc7	0.010600275
139	0xbdc70493	-0.09717669
140	0xbe1cbd04	-0.15306479
141	0x3d5adace	0.053431325
142	0x3d67470d	0.056464244
143	0xbd79dba5	-0.061000485
144	0x3db2270d	0.086988546
145	0xbd9ef674	-0.07761851
146	0x3bd6c4e6	0.006554234
147	0x3c933e3f	0.017974017
148	0x3dc89e19	0.0979578
149	0x3d279402	0.040912636
150	0xbcaeb9a4	-0.021328755
151	0xbd12a7b1	-0.035804454
152	0x3ca7e2da	0.020493913
153	0x3c7751aa	0.015095154
154	0x3b4c0338	0.0031129848
155	0xbd06f123	-0.03294481
156	0x3cd1f051	0.025627287
157	0x3d392190	0.045198023
158	0xbca655de	-0.020304617
159	0x3d66a088	0.05630544
160	0xbe36e832	-0.17862013
161	0xbe1b2bba	-0.15153399
162	0xbe230880	-0.15921211
163	0xbd98ba76	-0.074574396
164	0x3d9e70f3	0.07736387
165	0xbd9621c5	-0.0733066
166	0xbe052a16	-0.13004336
167	0xbd84bb33	-0.06481018
168	0x3cdf990a	0.027294654
169	0x3ddda3ad	0.10822234
170	0xbdf96157	-0.12176769
171	0xbe3966fb	-0.1810569
172	0xbdbc1398	-0.09183425
173	0xbcfe32fc	-0.03103017
174	0x3dc2c7b8	0.095107496
175	0x3d765df3	0.06014819
176	0x3d2322df	0.039828178
177	0x3dc22d4d	0.09481297
178	0x3dfcde37	0.123470716
179	0x3d588ed8	0.0528706
180	0x3cccde71	0.025008412
181	0x3e3065db	0.17226355
182	0x3c290999	0.01031723
183	0x3dcec29d	0.10095713
184	0x3d4fb857	0.05071291
185	0x3d467ef7	0.048460927
186	0x3e3b1d1b	0.18272822
187	0xbcc96435	-0.024583915
188	0x3def7bae	0.11693512
189	0x3d6a326e	0.057177
190	0xbd87193d	-0.06596611
191	0x3da5950c	0.08085069
192	0x3d66956f	0.056294855
193	0x3e108f0b	0.14117067
194	0x3cc9e3f4	0.02464483
195	0xbde4ecfe	-0.11178015
196	0xbd776072	-0.06039471
197	0x3d148029	0.036255036
198	0xbd1f555b	-0.03889976
199	0x3d9cdb67	0.07659035
200	0x3bc3b868	0.0059729107
201	0x3bd902c9	0.0066226465
202	0xbdd9be04	-0.10631946
203	0xbdd7d8c4	-0.10539392
204	0xbcc5879c	-0.024112515
205	0x3d755da8	0.05990377
206	0xbdb89f58	-0.090147674
207	0x3c34f7de	0.011045424
208	0x3d8b8cbf	0.068139546
209	0x3d849a65	0.06474761
210	0x3d086bb1	0.033305828
211	0x3e049d34	0.12950593
212	0x3d11cad6	0.03559383
213	0x3d80e159	0.06292982
214	0x3c5fd606	0.013661867
215	0x3ac30642	0.0014879184
216	0xbe17b160	-0.14813757
217	0x3dc07617	0.09397524
218	0x3dcc0f00	0.099637985
219	0xbd177d38	-0.036984652
220	0xbcff8efe	-0.031196114
221	0xbd8d9a9d	-0.06914256
222	0x3cf34cfd	0.029699797
223	0x3da8ca25	0.08241681
224	0xbe0c18af	-0.13681291
225	0xbd0b5768	-0.034018904
226	0xbdfaf371	-0.12253464
227	0xbd9f9f37	-0.0779404
228	0xbe1582ce	-0.1460068
229	0x3d6fdc5e	0.058559768
230	0xbd46aa27	-0.048502114
231	0xbe371aad	-0.1788127
232	0x3b8b4ded	0.004251233
233	0xbd9afab8	-0.07567352
234	0xbd16370d	-0.036673594
235	0xbdf86649	-0.12128884
236	0xbe602551	-0.21889235
237	0xbe14ae00	-0.145195
238	0xbd605e08	-0.054777175
239	0xbb0b72b0	-0.0021278076
240	0xbe48261f	-0.19545792
241	0xbe86f55f	-0.26359078
242	0xbe0eeb9f	-0.1395707
243	0xbdd73442	-0.10508014
244	0xbd0ceccf	-0.034405526
245	0xbe2d323c	-0.16913694
246	0xbdc3c2b9	-0.09558625
247	0xbd848b76	-0.064719126
248	0xbb57b193	-0.003291224
249	0xbda99316	-0.082800075
250	0xbd37454c	-0.04474382
251	0xbc8ada68	-0.016949847
252	0xbd560c06	-0.05225756
253	0xbdd6f0ae	-0.10495125
254	0xbda6926d	-0.08133397
255	0x3ca6c206	0.02035619

layer2.0.bias f4 [32]
0	0xbbcc1306	-0.0062278537
1	0xbc88a904	-0.016682155
2	0x3d33fc7d	0.043941963
3	0xbb4dbd7d	-0.0031393461
4	0xbcf3c2f5	-0.029756049
5	0x3d426301	0.0474577
6	0x3c0f8990	0.008760825
7	0xbc877d9b	-0.016539386
8	0xbd74eeae	-0.059797935
9	0x3dbee9e9	0.093219586
10	0x3ce4b3c2	0.027917746
11	0x3d1b008e	0.037842326
12	0x3cdf6fad	0.02727493
13	0xbd0e5fbd	-0.034759272
14	0xbccd2d6b	-0.025046071
15	0x3d2aca4d	0.041696835
16	0x3d89071b	0.066908084
17	0xbd61bb2d	-0.055110145
18	0x3d36f4b3	0.044666957
19	0x3bd049ab	0.006356438
20	0x3cc9f1e2	0.024651472
21	0xbd1aae53	-0.037763905
22	0x3c721e9f	0.014777808
23	0x3d1ba9ee	0.038003854
24	0xbd0bbfb6	-0.034118377
25	0xbd41f291	-0.04735047
26	0xbc410407	-0.011780745
27	0x3d990b3c	0.07472846
28	0xbcb779fd	-0.022397036
29	0x3cc509b6	0.024052482
30	0xbc4a3ea3	-0.012344035
31	0x3d3e1523	0.046406876

layer2.1.weight f4 [32]
0	0x3f8be399	1.0928832
1	0x3f573de8	0.84078836
2	0x3f1907e1	0.5977765
3	0x3f1ed729	0.6204706
4	0x3f83106b	1.0239385
5	0x3f1bed4f	0.6090898
6	0x3f1d8f6e	0.6154698
7	0x3f124cc1	0.5714837
8	0x3f07571b	0.5286729
9	0x3f9190e0	1.1372337
10	0x3f7e0dc1	0.99239737
11	0x3f84ed43	1.0384907
12	0x3f8b7361	1.0894586
13	0x3f760c7f	0.9611282
14	0x3f8e25c1	1.1105272
15	0x3f459d23	0.77192897
16	0x3f81575e	1.0104787
17	0x3f448f9e	0.7678164
18	0x3f9a3938	1.2048712
19	0x3f9f87ed	1.2463356
20	0x3f5ab8b5	0.8543809
21	0x3f423e24	0.7587607
22	0x3f8deaec	1.1087317
23	0x3efb65ee	0.49101204
24	0x3f347d2e	0.7050351
25	0x3f720611	0.94540507
26	0x3f566ed7	0.8376288
27	0x3f15e4e5	0.5855239
28	0x3efc37e0	0.4926138
29	0x3f686967	0.9078583
30	0x3f18061c	0.5938432
31	0x3ef2fb39	0.47457293

layer2.1.bias f4 [32]
0	0xbee8b2db	-0.45448956
1	0xbe9e2c6e	-0.30893272
2	0xbe5c6b67	-0.21525346
3	0xbe7a0979	-0.24417676
4	0xbe9ec869	-0.31012276
5	0xbe132a87	-0.14371692
6	0xbe2528e5	-0.16128881
7	0xbe6e683c	-0.2328195
8	0xbda8d900	-0.082445145
9	0xbe75f1cf	-0.24018024
10	0xbebb8a5d	-0.36629
11	0xbe66d3b4	-0.22541696
12	0xbeacf2a5	-0.33778873
13	0xbe8fa388	-0.28054452
14	0xbed16878	-0.40900016
15	0xbec1a5e3	-0.37821874
16	0xbe873522	-0.26407725
17	0xbeb3163d	-0.34977904
18	0xbea005eb	-0.31254515
19	0xbe83cf0b	-0.257439
20	0xbeb85947	-0.36005613
21	0xbe9ef275	-0.31044355
22	0xbea11061	-0.3145781
23	0xbe7959dd	-0.24350686
24	0xbe436302	-0.19080737
25	0xbea10920	-0.31452274
26	0xbe2b35d1	-0.16719748
27	0xbe60c1f9	-0.21948995
28	0xbe8dcece	-0.27696842
29	0xbe9f152e	-0.31070846
30	0xbe824699	-0.25444487
31	0xbe700756	-0.23440298

layer2.1.running_mean f4 [32]
0	0xbf0c50d6	-0.54810846
1	0xbe6d1204	-0.23151404
2	0xbea4c1fe	-0.32179254
3	0xbe0e824d	-0.13916893
4	0xbdb9bf12	-0.09069647
5	0x3f26cfd1	0.6516085
6	0xbe33b5a4	-0.17549759
7	0xbefff1c6	-0.49989146
8	0x3ebc5e28	0.36790586
9	0x3e900fb6	0.28136986
10	0xbe490c20	-0.19633532
11	0x3e86286d	0.26202717
12	0x3ee6f7bd	0.45110884
13	0xbebf7e65	-0.3740112
14	0x3e9f79da	0.31147653
15	0x3d3544dc	0.044255123
16	0xbea2e76e	-0.31817192
17	0x3e590382	0.21192744
18	0xbea533c4	-0.32266057
19	0x3ee1542d	0.44009534
20	0x3d3368ab	0.04380099
21	0x3d191834	0.037376598
22	0xbeac88ef	-0.33698222
23	0xbea3cc6d	-0.31991902
24	0xbe95a23a	-0.29225332
25	0x3ec065d9	0.37577704
26	0xbe34557f	-0.17610739
27	0xbe497567	-0.19673692
28	0xbeccfe6f	-0.40037867
29	0xbf017f6e	-0.5058507
30	0xbee2443e	-0.4419269
31	0xbf03b0be	-0.5144156

layer2.1.running_var f4 [32]
0	0x3f00cb3c	0.5031011
1	0x3eded163	0.43519124
2	0x3ed41e95	0.41429582
3	0x3eefcf3f	0.46837804
4	0x3f032260	0.5122433
5	0x3ec4fbed	0.38473454
6	0x3f376482	0.7163774
7	0x3eec3cd2	0.46140152
8	0x3f04369d	0.51645833
9	0x3f0ba0be	0.5454215
10	0x3ecdbdb6	0.401838
11	0x3ed36d73	0.4129444
12	0x3ec79888	0.3898356
13	0x3eac63b6	0.33669823
14	0x3f09edcd	0.5387848
15	0x3eda2753	0.42608127
16	0x3f037ff0	0.5136709
17	0x3ec69e98	0.38792872
18	0x3edaa043	0.42700395
19	0x3f207b68	0.62688303
20	0x3f017ca5	0.5058082
21	0x3ee68804	0.45025647
22	0x3ea0fefa	0.31444532
23	0x3f2a5d31	0.6654845
24	0x3f0f0e6b	0.55881375
25	0x3ecfc1f6	0.40577668
26	0x3ececb41	0.40389445
27	0x3f08a451	0.53375727
28	0x3ebcc157	0.36866257
29	0x3ef6c398	0.481961
30	0x3ecd5565	0.40104213
31	0x3ee075d8	0.43839908

fc.weight f4 [10, 1568]
0	0x3d21da41	0.039514784
1	0xbc92550c	-0.01786282
2	0xbd641a88	-0.055689365
3	0xbc9ddd2d	-0.019270504
4	0x3d0b2cdf	0.03397834
5	0xbd0c3ac1	-0.03423572
6	0x3d6b4e95	0.05744799
7	0x3c52d3f7	0.012867919
8	0xbd441535	-0.047871787
9	0xbc7847e5	-0.01515386
10	0xbb87f1c6	-0.0041486947
11	0xbd89fe59	-0.06737966
12	0xbcf50647	-0.02991022
13	0x3d912cad	0.07088599
14	0x3d3b89e2	0.045785792
15	0x39ccfc0f	0.0003909771
16	0xbd8eda51	-0.06975234
17	0xbda8c1cd	-0.082400896
18	0xbd6cb7e2	-0.05779255
19	0x3d0c0d2a	0.03419224
20	0x3d7ef88a	0.062248744
21	0x3dbb10a8	0.09134036
22	0x3dcef062	0.10104443
23	0x3dad7709	0.0846997
24	0x3dcd1987	0.100146346
25	0x3c8644df	0.016390262
26	0xbdcf1dbb	-0.101130925
27	0x3d2f3eb6	0.042784415
28	0x3d5069df	0.050882217
29	0x3c442457	0.011971555
30	0x3e2dcde9	0.1697308
31	0x3d2242b5	0.039614398
32	0x3d6e8227	0.05822959
33	0xbda8498a	-0.082171515
34	0xbc4e116b	-0.012577395
35	0xbd6468d8	-0.05576405
36	0x3d960853	0.073258065
37	0x3e2f7657	0.17134987
38	0x3e81d067	0.2535431
39	0x3d97300c	0.07382211
40	0x3cc5f6e8	0.024165586
41	0xbc2a3ec9	-0.010390946
42	0x3c4b607b	0.012413139
43	0x3c4f2868	0.012643911
44	0xbd45ad20	-0.048260808
45	0xbe141ce1	-0.14464141
46	0xbe033113	-0.12811689
47	0x3d0e4424	0.034732953
48	0xbd9dd3de	-0.07706426
49	0xbcdce35e	-0.026963886
50	0x3c02ade2	0.007976027
51	0xbcb374b6	-0.021906238
52	0xbd4fcb3b	-0.050730925
53	0x3c419c37	0.01181703
54	0x3d14d099	0.036331747
55	0x3df6ee7d	0.12057207
56	0xbd752778	-0.059852093
57	0xbde02b59	-0.10945768
58	0x3c9bd8c7	0.019024266
59	0xbca6e809	-0.020374315
60	0x3c9d04a7	0.019167257
61	0x3a0d68b2	0.0005394324
62	0x3d16d0cf	0.03682023
63	0xbd1bdffb	-0.0380554
64	0xbddecfb8	-0.10879463
65	0xbd5a41fa	-0.053285576
66	0xbc4c9202	-0.012485983
67	0x3d590c62	0.052990325
68	0xbd7b330f	-0.06132799
69	0xbc99d624	-0.018778868
70	0xbe4c0968	-0.19925463
71	0xbdef7c92	-0.11693682
72	0xbcd403bf	-0.025880693
73	0xbdde70d6	-0.108613655
74	0xbdbc9bac	-0.092093796
75	0xbe93108d	-0.28723565
76	0xbeb50991	-0.3535886
77	0x3d0e8967	0.034799006
78	0x3c02c9ea	0.00798271
79	0x3c90da79	0.0176823
80	0x3ca787d0	0.020450503
81	0x3dd5a8f7	0.10432618
82	0xbd8deba4	-0.069297105
83	0xbd8498bd	-0.06474445
84	0x3bfda5d6	0.0077407164
85	0xbda20aab	-0.07912191
86	0x3d87bbc6	0.06627612
87	0xbb31902e	-0.0027093994
88	0x3d998ee7	0.074979596
89	0x3da41f2b	0.08013757
90	0x3c7167b8	0.014734201
91	0xbd9f5478	-0.07779783
92	0xbcc59b4c	-0.024121903
93	0x3d4d6579	0.0501456
94	0x3ce74cd9	0.028234886
95	0x3d0356f2	0.03206534
96	0x3be808b7	0.007081117
97	0xbc9d8630	-0.019229025
98	0xbdc885aa	-0.097911194
99	0xbd4af1f6	-0.04954716
100	0xbe07c8ec	-0.1326024
101	0xbddd80f2	-0.1081561
102	0xbdb31a03	-0.08745196
103	0x3d0d6072	0.034515806
104	0x3bee1d46	0.0072666733
105	0xbcb7a5d5	-0.022417942
106	0xbe3155b9	-0.17317857
107	0x3da9d946	0.08293395
108	0x38ca2c9f	9.640422e-05
109	0x3c77c4d2	0.015122609
110	0xbdcb084f	-0.09913694
111	0xbdb62791	-0.088942654
112	0x3d0017b1	0.031272594
113	0xbd69e5dd	-0.05710398
114	0x3d1bdeb4	0.038054183
115	0x3d30f1a5	0.0431992
116	0x3c638e61	0.013888926
117	0x3dd2e7fe	0.10298155
118	0x3bb0117c	0.005373178
119	0x3d24a9e0	0.040201068
120	0xbe0e2f1c	-0.13885158
121	0xbcc2bd0c	-0.023771785
122	0x3c727a43	0.014799657
123	0x3d8ca429	0.068672486
124	0xbca35839	-0.019939529
125	0x3c93057c	0.017946951
126	0xbc1d1e56	-0.009589752
127	0xbdb15d11	-0.08660329
128	0xbe27f261	-0.16401054
129	0xbd4fbd15	-0.050717432
130	0xbdf887a6	-0.12135248
131	0x3e0720f5	0.13196166
132	0x3dcd3cd3	0.10021367
133	0x3d523110	0.05131632
134	0x3d3bb2a1	0.04582465
135	0x3d8c0ea1	0.06838728
136	0xbe24425d	-0.1604094
137	0xbd87015c	-0.06592056
138	0x3d75ea65	0.06003799
139	0x3cbd12b6	0.023080211
140	0x3d758d54	0.059949234
141	0x3d9c0780	0.07618618
142	0x3c1dcda7	0.009631551
143	0x3c0a05f0	0.008424267
144	0xbc0a2b20	-0.008433133
145	0xbd8defaa	-0.06930478
146	0x3cc95c3c	0.024580114
147	0x3dc50694	0.09620395
148	0xbd0bc9cb	-0.03412799
149	0xbe3ec694	-0.18630439
150	0xbd13f4b3	-0.036122035
151	0xbd8d7b79	-0.06908316
152	0x3cf6a93c	0.030109994
153	0x3e0135a2	0.12618116
154	0xbc6c69af	-0.014429494
155	0x3d2ff8c7	0.042961862
156	0x3ddfef72	0.109343424
157	0x3c5787cc	0.013154935
158	0xbca13049	-0.019676344
159	0xbd8d012c	-0.06884989
160	0xbbf65b05	-0.0075181746
161	0x3deea2bd	0.116521336
162	0xbd10a2f1	-0.035311643
163	0xbe35e6cf	-0.17763828
164	0xbe2f6df1	-0.17131783
165	0xbe193de6	-0.14965019
166	0xbda1c207	-0.07898336
167	0xbdb867bd	-0.090041615
168	0xbd56339a	-0.052295305
169	0xbd22a053	-0.03970368
170	0xbc559eb1	-0.013038323
171	0xbd19f2b7	-0.037584987
172	0xbe182e40	-0.14861393
173	0xbeac2013	-0.3361822
174	0xbe5c82c3	-0.21534257
175	0x3b659318	0.0035030302
176	0xbc1508eb	-0.0090963645
177	0x3dab3348	0.083593905
178	0x3acc84da	0.0015603558
179	0x3d3adf67	0.04562321
180	0x3da1593e	0.0787835
181	0xbe449ca6	-0.19200382
182	0xbd0cd6e5	-0.034384627
183	0xbdec4eba	-0.115384534
184	0x3cbf77e2	0.023372594
185	0x3cfd3b8a	0.03091218
186	0x3df48909	0.119402
187	0x3d6bc4c5	0.0575607
188	0x3d001120	0.03126633
189	0xbcd77d7a	-0.02630495
190	0x3cdc72f5	0.026910285
191	0xbd591d5d	-0.05300652
192	0xbdf8f20a	-0.1215554
193	0xbd92a577	-0.07160466
194	0xbdd22e58	-0.102627456
195	0xbc973e59	-0.018462347
196	0xbd7998ce	-0.06093674
197	0xbd1b719c	-0.037950143
198	0xbd22c3b3	-0.039737415
199	0xbd361584	-0.044454113
200	0xbcd4878f	-0.025943546
201	0x3d8467ad	0.06465087
202	0x3ddcc388	0.10779482
203	0xbe0de39b	-0.13856356
204	0xbb3f3986	-0.0029178574
205	0xbcc6b399	-0.02425556
206	0x3c8213a6	0.01587851
207	0x3dc691ae	0.09695755
208	0x3e53f0ac	0.20697278
209	0x3c64d72e	0.013967318
210	0x3d6ef086	0.05833485
211	0x3d813b19	0.063101
212	0x3d9b25d9	0.07575578
213	0x3c322c48	0.010874815
214	0x3e2cd324	0.16877419
215	0x3bd5b9e9	0.0065224064
216	0xbdb2f239	-0.087376066
217	0x3d2f3988	0.042779475
218	0x3d17e89e	0.037087075
219	0x3dd09997	0.10185545
220	0x3de429a5	0.111407556
221	0xbc383cd1	-0.0112449685
222	0xbe565f86	-0.20934877
223	0xbc434210	-0.011917606
224	0x3cee8ee6	0.029120874
225	0x3ddda336	0.10822146
226	0xbd173661	-0.036917094
227	0xbc702a32	-0.014658498
228	0xbe4db377	-0.20087992
229	0xbb3feb7c	-0.0029284647
230	0x3da1af6c	0.07894787
231	0x3d86f71d	0.06590102
232	0x3de525d4	0.11188856
233	0xbe1ca51f	-0.15297364
234	0xbd85f7e3	-0.06541421
235	0x3d74bbed	0.059749532
236	0x3dba0a54	0.09084001
237	0x3d3eb346	0.046557687
238	0x3d3acce4	0.045605555
239	0x3d865af6	0.06560318
240	0xbd09a5bb	-0.03360532
241	0x3db5c76a	0.08875926
242	0x3e1b3a55	0.1515897
243	0x3d3eb885	0.04656269
244	0xbb9b0a8f	-0.0047314833
245	0x3cbdf5bf	0.02318847
246	0x3c844b81	0.016149284
247	0x3d31fe81	0.043455604
248	0x3d838b06	0.06423001
249	0x3d3e5c07	0.046474483
250	0x3d9123cd	0.070869066
251	0xbd35bd19	-0.04436979
252	0x3d36a31d	0.04458915
253	0xbd2017f1	-0.039085332
254	0xbc972555	-0.018450418
255	0xbdf4830a	-0.11939056

fc.bias f4 [10]
0	0x3d61874f	0.05506068
1	0x3dae34e1	0.085061796
2	0xbc898c97	-0.016790671
3	0xbcd617ba	-0.02613436
4	0xbd60e60f	-0.0549069
5	0xbb30826f	-0.0026933213
6	0xbcd78d89	-0.026312606
7	0xbba9a84c	-0.0051775333
8	0xbd192e8c	-0.037397906
9	0xbc8994f2	-0.016794655
